best_fixed_matrix.pth (torch, 927667 bytes, 38 tensors)

mu f4 [3]
0.0061259693 0.0023700767 24.110815
00000000: 5bbc c83b 4a53 1b3b f3e2 c041

std f4 [3]
8.08115 9.079198 8.117185
00000000: 644c 0141 6544 1141 fddf 0141

encoder.0.weight f4 [500, 3]
0.3200535 -0.4778103 -0.27106246 -0.05388719 0.08017242 0.23059005 0.51306957 -0.5416202
0.5377386 0.060254104 0.00064492784 0.30469057 -0.38480467 -0.14213157 -0.23201415 0.14068641
0.25687754 0.28813255 -0.003946396 0.09272032 -0.07067517 0.15193096 -0.44554242 0.3756023
0.17643212 0.03433924 0.23352626 0.059976585 0.093898065 0.12491035 0.39948606 0.31167012
0.3222452 0.5146463 -0.4174402 -0.21820313 -0.25359002 -0.45088288 0.2570385 -0.5855602
-0.2633611 0.30084622 -0.38247478 0.19562781 -0.06847186 0.20784919 -0.038442448 0.020544427
-0.37741214 -0.13423118 0.10467083 -0.21411805 -0.13812922 -0.2453862 0.39511505 0.013146281
-0.27259403 -0.6995586 -0.75359255 0.4630923 -0.44449782 0.506333 -0.32807097 0.011061803
-0.51706845 0.10679795 0.13044468 0.010060655 0.33260542 -0.5707061 0.2513421 0.036520407
-0.44900542 -0.07644779 -0.3113271 -0.564993 0.26217434 0.18812543 -0.15062931 -0.07421552
-0.277967 0.1340375 0.35804784 0.07510153 -0.06573527 -0.18641104 0.28100678 -0.056032363
0.09652362 -0.09930528 0.15811719 -0.252117 -0.3520341 0.0036605285 0.5307174 0.39103737
0.4241533 -0.57758474 -0.48896685 0.554167 -0.15481748 0.4866643 0.0010389341 -0.12660699
-0.03640961 -0.17832303 0.23158589 -0.035650365 -0.66030633 -0.6674244 -0.3702585 -0.31359115
-0.12974599 0.05874121 -0.05620901 0.37541083 -0.022745943 -0.4106832 0.35749605 0.16955812
-0.024669329 0.044416312 -0.12318878 -0.3035501 0.53815216 -0.3168418 0.3758736 0.15014951
0.37336582 0.29828656 -0.25326133 -0.32058373 -0.2667849 -0.27448255 0.25176463 0.1078923
0.34634876 -0.2122919 -0.2980711 0.024008382 -0.050409526 0.29298198 -0.06575926 -0.48003006
0.25887793 -0.2908436 0.07331908 0.2987833 -0.22069597 -0.19466719 -0.5637586 -0.10906521
-0.23395222 -0.5139415 0.35467663 -0.033773746 0.7131666 -0.1578479 0.41780308 -0.26881292
-0.045810733 -0.109373555 -0.19952315 0.34704554 -0.08524259 -0.16244525 -0.20314792 -0.10367483
-0.3100702 0.013576763 0.23786364 0.12952067 -0.2837847 0.24781115 -0.517672 0.46227777
-0.057645913 0.7820078 1.1424148 0.06395156 -0.039135657 -0.14050232 -0.14018793 -0.16581944
0.16685869 0.019843057 0.27134764 -0.18457712 -0.056543697 -0.085143924 0.25874376 -0.05096357
-0.48713365 0.5556187 -0.21549958 0.14507367 -0.20429032 0.1690916 0.067484714 -0.3413792
-0.004367406 -0.23756328 -0.2207246 -0.34602028 -0.2314426 0.16172935 -0.4433428 0.2399809
0.23319064 0.15720004 0.14685816 0.09438221 0.04000323 -0.33329466 0.46400613 -0.012794042
-0.28707862 0.491238 0.1811285 0.29926583 -0.5207967 0.39311677 -0.43042073 0.43742165
0.09666033 0.3786584 -0.29758385 -0.036698222 0.3347761 -0.20844156 0.27748847 0.31757647
-0.5221906 0.34333286 0.47209284 0.27174076 0.47125208 -0.26863387 0.52575916 -0.10995695
0.38137057 -0.38232353 0.41890758 -0.65803033 -0.8687674 0.019174822 0.40056044 0.18575181
0.23219253 -0.05086454 0.05035359 -0.013374415 0.12962209 0.23580164 -0.47724095 0.08601574
00000000: 0dde a33e 8da3 f4be b3c8 8abe d0b8 5cbd
00000010: 7031 a43d cc1f 6c3e 8758 033f 9fa7 0abf
00000020: 3da9 093f 02cd 763d 6010 293a 6700 9c3e
00000030: 1e05 c5be f08a 11be 1e95 6dbe 1910 103e
00000040: 7485 833e 1c86 933e c550 81bb 27e4 bd3d
00000050: 25be 90bd ca93 1b3e 231e e4be f24e c03e
00000060: 9faa 343e 4ea7 0c3d 8221 6f3e 02aa 753d
00000070: a14d c03d ffd0 ff3d 7089 cc3e 3a93 9f3e
00000080: 53fd a43e dcbf 033f b9ba d5be a470 5fbe
00000090: 8dd6 81be 1fda e6be 8d9a 833e 46e7 15bf
000000a0: 44d7 86be 8408 9a3e bcd3 c3be a852 483e
000000b0: f93a 8cbd 6bd6 543e d475 1dbd c94c a83c
000000c0: 2a3c c1be e673 09be a95d d63d c341 5bbe
000000d0: bf71 0dbe 8546 7bbe 854c ca3e 8063 573c
000000e0: 7291 8bbe 4616 33bf 71eb 40bf 6f1a ed3e
000000f0: 3895 e3be 0a9f 013f ebf8 a7be 913c 353c
00000100: 995e 04bf e2b8 da3d 4a93 053e 72d5 243c
00000110: 424b aa3e cc19 12bf e9af 803e 6c96 153d
00000120: 0ae4 e5be a990 9cbd 4466 9fbe 62a3 10bf
00000130: b73b 863e f4a3 403e 923e 1abe 4efe 97bd
00000140: b151 8ebe 2041 093e 0c52 b73e d5ce 993d
00000150: 37a0 86bd 89e2 3ebe 1fe0 8f3e 3182 65bd
00000160: 2dae c53d 9160 cbbd 79e9 213e 7b15 81be
00000170: d03d b4be 7ae5 6f3b 18dd 073f 0d36 c83e
00000180: 9f2a d93e 98dc 13bf dd59 fabe e3dd 0d3f
00000190: 7988 1ebe 102c f93e d82c 883a 43a5 01be
000001a0: 3e22 15bd 509a 36be da24 6d3e 1e06 12bd
000001b0: d609 29bf 53dc 2abf 8692 bdbe 058f a0be
000001c0: 22dc 04be 9f9a 703d 6b3b 66bd d935 c03e
000001d0: b355 babc 1245 d2be b909 b73e a5a0 2d3e
000001e0: 5517 cabc e1ed 353d 664a fcbd eb6a 9bbe
000001f0: 57c4 093f 1739 a2be 8172 c03e cbc0 193e
00000200: ce29 bf3e 04b9 983e 78ab 81be 8d23 a4be
00000210: 0898 88be fa88 8cbe 4be7 803e a3f6 dc3d
00000220: a054 b13e 0c63 59be c69c 98be 3aad c43c
00000230: 387a 4ebd bc01 963e caac 86bd 80c6 f5be
00000240: a68b 843e 74e9 94be 5028 963d 20fa 983e
00000250: 20fe 61be d656 47be 7c52 10bf 955d dfbd
00000260: 2c91 6fbe ac91 03bf 2d98 b53e 5756 0abd
00000270: 1692 363f e1a2 21be 49ea d53e d9a1 89be
00000280: 09a4 3bbd 3eff dfbd cc4f 4cbe f4af b13e
00000290: ab93 aebd 0c58 26be 0206 50be 7853 d4bd
000002a0: 85c1 9ebe 1271 5e3c 8792 733e 11a1 043e
000002b0: 3a4c 91be 35c2 7d3e 2786 04bf acaf ec3e
000002c0: 1f1e 6cbd aa31 483f a63a 923f 09f9 823d
000002d0: b64c 20bd d7df 0fbe 6d8d 0fbe 92cc 29be
000002e0: 01dd 2a3e e88d a23c 14ee 8a3e c901 3dbe
000002f0: 5d9a 67bd f05f aebd 107a 843e 2dbf 50bd
00000300: 9569 f9be 073d 0e3f ecab 5cbe 318e 143e
00000310: 7b31 51be 5926 2d3e 6d35 8a3d 41c9 aebe
00000320: 751c 8fbb ca43 73be a105 62be 9229 b1be
00000330: 4aff 6cbe 619c 253e d4fd e2be 8ebd 753e
00000340: 87c9 6e3e 0cf9 203e fc61 163e 764b c13d
00000350: 6dda 233d 99a5 aabe 3692 ed3e 1a9e 51bc
00000360: f8fb 92be 8c83 fb3e c079 393e 5f39 993e
00000370: ef52 05bf 9a46 c93e 1b60 dcbe bbf5 df3e
00000380: daf5 c53d 84df c13e e95c 98be e050 16bd
00000390: c667 ab3e b471 55be f812 8e3e 6299 a23e
000003a0: 48ae 05bf 53c9 af3e 27b6 f13e 9b21 8b3e
000003b0: f447 f13e 618a 89be 2798 063f 1c31 e1bd
000003c0: 0143 c33e e9bf c3be 0e7b d63e ad74 28bf
000003d0: 8a67 5ebf 8414 9d3c 4216 cd3e b935 3e3e
000003e0: e1c3 6d3e 5657 50bd 913f 4e3d 5d20 5bbc
000003f0: a7bb 043e fc75 713e ed58 f4be 0529 b03d

encoder.0.bias f4 [500]
-0.050864104 -0.26774502 0.49458948 -0.17457262 -0.27385414 -0.3040678 -0.285548 -0.20364343
0.1718073 -0.39325723 0.15337916 0.25116345 -0.22614798 -0.3245719 0.16290687 0.00341312
0.42163995 0.5488665 -0.35591185 0.30735403 -0.38854286 0.49448922 0.01230164 0.339503
-0.39123267 -0.31603286 0.19782433 -0.34282723 -0.42641458 -0.1579561 -0.43706977 -0.34811085
-0.38535538 0.5589884 -0.042912535 0.30701026 -0.20467266 -0.36593488 -0.2396387 0.21830061
-0.018064247 0.285772 -0.22410768 0.45774737 0.53288925 -0.26564136 0.018373216 -0.24856783
0.041267168 -0.26519504 -0.33700398 0.037131656 -0.5838092 -0.12694874 0.034205418 0.47617248
0.5172881 0.35489962 -0.10291024 -0.025740447 -0.18640257 0.022834891 -0.0997995 0.10571313
0.35300323 0.05622421 0.19531202 -0.38957924 0.5030003 -0.36928886 0.07615216 0.07459847
-0.033472735 -0.5613636 0.1432971 -0.078925654 -0.15906093 -0.33577204 0.39856392 0.31246072
-0.44748604 0.047632143 -0.5169682 -0.013994476 -0.2354381 -0.21982221 0.4404633 0.07607762
0.19755428 -0.48224023 0.08899595 -0.28598917 -0.1835571 0.44030342 0.47041395 -0.39144394
-0.03316705 0.5128276 0.064401604 0.23309162 -0.46031272 -0.22733524 0.21778825 -0.033420492
-0.34864143 -0.58330417 0.23116496 -0.01945224 0.14916202 0.44446418 0.13297878 0.43435737
0.30001912 -0.05068025 0.25799784 -0.02112973 0.3937204 -0.27506024 -0.38160172 0.0077167396
-0.30160633 -0.0027299332 0.56319034 -0.37810206 -0.5219374 -0.17708927 -0.2559924 -0.021538375
-0.24122545 -0.4265537 0.14513035 -0.5051039 -0.2720401 0.0016734941 0.3943905 -0.48008096
-0.33590695 0.057799686 0.21492705 0.39049166 -0.17222503 0.31434262 0.055638347 -0.39539495
-0.550116 0.060232807 -0.3779791 -0.4567783 0.3967906 0.27707303 0.23394328 -0.1394462
-0.38246197 -0.20708798 0.01731768 0.47833982 0.40605268 0.39858103 0.080834776 -0.18127868
-0.41424307 -0.31329313 -0.065458015 -0.386268 0.32620582 0.3131071 0.23165551 0.5008993
-0.21597454 -0.17772062 -0.19616057 0.07710548 0.019825017 -0.6227995 -0.022212159 -0.4591536
0.56158805 -0.37182117 -0.5191379 0.50489163 -0.08846698 0.22771083 0.36561298 -0.10029475
0.046333596 -0.56061834 -0.0023630827 0.28665817 -0.006312069 -0.4458508 -0.2148374 -0.29412547
0.23809922 -0.3365921 0.37871423 -0.07366542 -0.29114008 0.0307397 0.09754057 0.13076375
0.15764722 0.32755947 0.19272132 -0.20020555 0.46979922 0.4460316 -0.2740256 0.031504024
-0.47915053 -0.056352854 0.2343997 0.26254174 -0.282558 -0.054813214 -0.46607396 0.2612319
0.3373442 0.06787656 0.1925765 0.17718045 0.42431405 0.20838778 0.62456155 0.1461273
0.031549405 -0.53396094 0.46141517 0.15108258 0.0490019 0.038275648 -0.4830085 -0.22194974
0.5425345 0.5929843 0.16192983 -0.4437001 0.020300752 0.3865353 0.10481678 -0.5795897
-0.5392457 0.33177865 0.023958217 0.25890902 0.07048383 0.035255637 0.21123526 0.30854633
-0.55411696 0.5037695 -0.34312972 -0.43139768 -0.16830873 -0.39721793 0.26012307 -0.2028708
00000000: e156 50bd e015 89be d53a fd3e 2ac3 32be
00000010: 9c36 8cbe c6ae 9bbe 5933 92be e787 50be
00000020: 41ee 2f3e 0359 c9be 6d0f 1d3e 7f98 803e
00000030: 5693 67be 4a2e a6be 0fd1 263e a7ae 5f3b
00000040: 31e1 d73e 8482 0c3f 143a b6be 825d 9d3e
00000050: 17ef c6be b12d fd3e d18c 493c 56d3 ad3e
00000060: a64f c8be 0fcf a1be 7692 4a3e 0d87 afbe
00000070: 0353 dabe 3ebf 21be 9cc7 dfbe 963b b2be
00000080: 4d4d c5be dd19 0f3f 0ec5 2fbd 7330 9d3e
00000090: b695 51be d15b bbbe d963 75be 328a 5f3e
000000a0: 79fb 93bc b550 923e 7c7c 65be dd5d ea3e
000000b0: 6e6b 083f 2502 88be 6d83 963c 9188 7ebe
000000c0: c307 293d a5c7 87be c98b acbe 5d17 183d
000000d0: 8574 15bf dafe 01be fb1a 0c3d e1cc f33e
000000e0: fe6c 043f 67b5 b53e 9bc2 d2bd a1dd d2bc
000000f0: 51e0 3ebe 3d10 bb3c ae63 ccbd 2080 d83d
00000100: d7bc b43e 5b4b 663d e0ff 473e ee76 c7be
00000110: a1c4 003f 6e13 bdbe aaf5 9b3d 15c7 983d
00000120: b51a 09bd 86b5 0fbf 7abc 123e c6a3 a1bd
00000130: dee0 22be 50ea abbe 9210 cc3e dafa 9f3e
00000140: e41c e5be ec19 433d 0758 04bf 1649 65bc
00000150: af16 71be 1319 61be 6884 e13e 95ce 9b3d
00000160: ab4b 4a3e 31e8 f6be 8243 b63d 2c6d 92be
00000170: 64f6 3bbe 736f e13e 19da f03e 576b c8be
00000180: 2cda 07bd ab48 033f fde4 833d 92af 6e3e
00000190: 1cae ebbe 92ca 68be e203 5f3e ede3 08bd
000001a0: 2181 b2be 6c53 15bf 82b6 6c3e 4e5a 9fbc
000001b0: eebd 183e cf90 e33e 972b 083e 1764 de3e
000001c0: 1b9c 993e 1896 4fbd 4b18 843e 4118 adbc
000001d0: b895 c93e b2d4 8cbe 4d61 c3be b4dc fc3b
000001e0: 256c 9abe aee8 32bb 3e2d 103f 9896 c1be
000001f0: b09d 05bf e456 35be 7011 83be 3f71 b0bc
00000200: ce03 77be 3f65 dabe 0d9d 143e 7d4e 01bf
00000210: d748 8bbe 2559 db3a 8ded c93e 2ccd f5be
00000220: fffb abbe 5dbf 6c3d d615 5c3e 86ee c73e
00000230: c25b 30be 84f1 a03e 09e5 633d 3571 cabe
00000240: 67d4 0cbf adb6 763d 7a86 c1be d8de e9be
00000250: 2328 cb3e 84dc 8d3e d48e 6f3e fcca 0ebe
00000260: 0ed2 c3be df0e 54be cfdd 8d3c f5e8 f43e
00000270: 23e6 cf3e d012 cc3e b48c a53d 1ea1 39be
00000280: ab17 d4be f567 a0be da0e 86bd ebc4 c5be
00000290: 7304 a73e 934f a03e 1a37 6d3e f03a 003f
000002a0: 6e28 5dbe 65fc 35be 51de 48be 7ae9 9d3d
000002b0: 1368 a23c ca6f 1fbf 46f6 b5bc 2e16 ebbe
000002c0: 3cc4 0f3f 585f bebe 39e6 04bf 9440 013f
000002d0: 2d2e b5bd 072d 693e a031 bb3e 5567 cdbd
000002e0: 4cc8 3d3d af84 0fbf f3dd 1abb dcc4 923e
000002f0: 79d5 cebb 8e46 e4be 56fe 5bbe 9d97 96be
00000300: 48d0 733e cd55 acbe d5e6 c13e e5dd 96bd
00000310: 5010 95be d3d1 fb3c 5ac3 c73d efe6 053e
00000320: 466e 213e e0b5 a73e bd58 453e af02 4dbe
00000330: 8689 f03e 415e e43e 154d 8cbe 5d0a 013d
00000340: 3853 f5be 40d2 66bd 7a06 703e df6b 863e
00000350: 71ab 90be d283 60bd 3fa1 eebe 30c0 853e
00000360: 61b8 ac3e de02 8b3d c632 453e cb6e 353e
00000370: b13f d93e 9b63 553e 44e3 1f3f 65a2 153e
00000380: f339 013d aab1 08bf 9c3e ec3e 64b5 1a3e
00000390: 37b6 483d edc6 1c3d e44c f7be cb46 63be
000003a0: 8ae3 0a3f d2cd 173f efd0 253e a92c e3be
000003b0: c34d a63c f4e7 c53e 2eaa d63d fe5f 14bf
000003c0: 020c 0abf e4de a93e 0644 c43c b98f 843e
000003d0: d459 903d 3768 103d 0e4e 583e c9f9 9d3e
000003e0: 9cda 0dbf 0af7 003f b3ae afbe 28e0 dcbe
000003f0: 2059 2cbe 2660 cbbe da2e 853e 5dbd 4fbe

encoder.2.weight f4 [64, 500]
0.012339453 0.011522519 -0.010460805 0.0031833856 0.012919525 0.03993718 0.016320067 -0.020815274
0.0057753166 0.0239135 0.0039829463 -0.054662734 0.012743931 0.04277702 -0.0068321545 -0.008514003
-0.01369437 0.033882864 0.00069512776 0.002758612 -0.018795464 -0.010133415 0.020814914 -0.0028767635
0.015553274 -0.022238486 -0.013701131 -0.0019902096 0.012715077 -0.0041911625 -0.014843194 0.03604117
-0.010469941 0.037453674 0.0053245667 0.017820576 0.02294363 0.045255173 0.027925929 -0.008831764
0.0087629445 0.0036994745 0.026403371 -0.03266059 -0.062068608 0.026730807 -0.031507544 0.061817024
0.029052645 0.003481602 -0.034608617 -0.021853186 -0.041160163 -0.027591366 0.012529803 -0.032243513
-0.05977108 0.019637767 -0.07089871 0.05534991 0.04351249 -0.03531208 0.045961455 -0.05433542
-0.030013323 -0.025730778 -0.0053362614 -0.0061410903 0.0053585134 0.001200873 -0.053162895 0.013872904
-0.029305836 0.009581632 -0.017645685 0.019721044 0.03935407 -0.022479847 0.015321921 -0.001217698
-0.008001295 -0.0031729522 0.0051445453 -0.014394706 -0.010244676 -0.04344922 -0.034319904 0.08958421
0.005781889 0.040744342 0.069466114 0.003888987 -0.0017879326 -0.0032074526 -0.05407722 -0.0016339421
0.038768914 -0.012934574 0.015377806 -0.03931408 0.05694307 -0.005662801 -0.01115504 0.017843846
0.01261304 0.087334774 0.029161569 -0.060029633 0.008394166 -0.019612746 0.0016889304 0.0076310546
-0.059991673 -0.04007903 -0.020102171 -0.00798164 -0.046732638 0.011115791 0.0102548385 0.04633151
-0.013165579 0.0054703904 -0.03133937 0.031842683 0.019925628 0.02851179 -0.028149927 -0.038802028
-0.011553217 0.024304712 0.02236471 0.020771978 0.024112608 0.011443194 -0.0016848249 0.006619952
0.0056265853 0.04629806 -0.035015132 0.009533709 0.011298414 0.029015603 -0.024967073 -0.030071015
-0.027421232 0.018200882 -0.027138922 -0.058608398 -0.008688442 0.016645871 0.047642827 0.045823414
0.013468736 -0.02260395 0.06119872 0.024437934 -0.031619336 0.009546256 0.0104465 -0.018900638
0.01846902 -0.034355212 -0.0020661943 -0.020001048 0.002477732 0.030537007 -0.024946053 0.04155077
0.04743352 0.011570554 0.045105197 -0.035079718 0.03298999 -0.026218127 0.024412874 0.06396254
0.010117122 0.030456316 0.011935227 -0.051731385 0.020226823 0.037578978 -0.00812302 -0.006069612
-0.04934373 0.049258355 -0.04259841 -0.017489806 0.020265058 -0.058356438 0.013350094 -0.015252703
-0.033104368 -0.0037638643 -0.045333207 -0.025484048 -0.0006309211 -0.016672526 -0.041071117 -0.017458724
-0.01133997 -0.014235163 -0.05700519 0.025882598 -0.01345531 -0.03814769 -0.03708959 0.032852665
0.016328625 -0.025165318 0.03716277 -0.03469637 0.018303508 -0.03721571 -0.073419966 0.014893626
0.0011550505 0.014310223 0.0077118627 -0.0038489783 -0.0128904125 -0.051749878 -0.022586167 -0.017725788
-0.030659508 -0.024755744 0.015685657 -0.009948798 -0.0057150596 0.06949396 0.038401388 -0.008016931
-0.10038164 -0.035067894 -0.014959184 0.018173132 0.046406545 -0.04750945 -0.034978267 0.05553431
-0.0048533254 -0.021120513 -0.0024281468 0.018671669 -0.04975744 0.04164612 0.00035212713 -0.025085872
-0.0013873946 0.010130416 0.059496567 0.031380966 -0.0058525763 -0.015186555 -0.023223326 -0.015677588
00000000: 6b2b 4a3c f3c8 3c3c cc63 2bbc 59a0 503b
00000010: 6aac 533c 2b95 233d a9b1 853c cb84 aabc
00000020: de3e bd3b 3fe6 c33c 6083 823b 08e6 5fbd
00000030: eccb 503c f536 2f3d 44e0 dfbb 517e 0bbc
00000040: 5a5e 60bc c2c8 0a3d 3c39 363a d4c9 343b
00000050: f2f8 99bc a006 26bc 0a84 aa3c 1588 3cbb
00000060: 29d3 7e3c 7c2d b6bc b57a 60bc 2d6e 02bb
00000070: e652 503c 0556 89bb de30 73bc e89f 133d
00000080: 1e8a 2bbc 0669 193d b479 ae3b 75fc 913c
00000090: 48f4 bb3c 7d5d 393d ebc4 e43c 1ab3 10bc
000000a0: 7492 0f3c e272 723b e24b d83c 1cc7 05bd
000000b0: a73b 7ebd 91fa da3c 0e0e 01bd d933 7d3d
000000c0: d0ff ed3c 972b 643b c4c1 0dbd 7405 b3bc
000000d0: 8f97 28bd 4a07 e2bc ce49 4d3c c611 04bd
000000e0: 85d2 74bd 62df a03c 5833 91bd 96b6 623d
000000f0: 273a 323d 66a3 10bd 1442 3c3d d18e 5ebd
00000100: 80de f5bc 5ac9 d2bc cedb aebb 333b c9bb
00000110: 7896 af3b 9d66 9d3a 56c1 59bd 2d4b 633c
00000120: cb12 f0bc 47fc 1c3c af8d 90bc 078e a13c
00000130: bc31 213d a827 b8bc cb08 7b3c 2a9b 9fba
00000140: dd17 03bc 4ef1 4fbb 9393 a83b c6d7 6bbc
00000150: 49d9 27bc cff7 31bd 0793 0cbd ed77 b73d
00000160: 0076 bd3b 8ae3 263d 4044 8e3d 60de 7e3b
00000170: 1059 eaba 2034 52bb 1380 5dbd 002a d6ba
00000180: 27cc 1e3d 89eb 53bc 31f3 7b3c cd07 21bd
00000190: 233d 693d 058f b9bb a1c3 36bc 422d 923c
000001a0: eda6 4e3c 93dc b23d 3ee4 ee3c a2e1 75bd
000001b0: af87 093c e9aa a0bc 1a5f dd3a ed0d fa3b
000001c0: d4b9 75bd e929 24bd 4fad a4bc 6dc5 02bc
000001d0: b96a 3fbd 021f 363c e903 283c 1cc6 3d3d
000001e0: 71b4 57bc f640 b33b b65d 00bd 796d 023d
000001f0: 123b a33c 8f91 e93c ad9a e6bc e0ee 1ebd
00000200: b449 3dbc ad1a c73c 3236 b73c ff29 aa3c
00000210: ce87 c53c 3c7c 3b3c 58d5 dcba 2fec d83b
00000220: 385f b83b 09a3 3d3d 076c 0fbd 4633 1c3c
00000230: fc1c 393c 21b2 ed3c bf87 ccbc 7d57 f6bc
00000240: 7ea2 e0bc 041a 953c 7252 debc 5c0f 70bd
00000250: f859 0ebc ec5c 883c 2025 433d 55b1 3b3d
00000260: f9ab 5c3c eb2b b9bc 82ab 7a3d 1032 c83c
00000270: 4783 01bd e667 1c3c cc27 2b3c 83d5 9abc
00000280: 584c 973c 0db8 0cbd fd68 07bb 3dd9 a3bc
00000290: 7261 223b bf28 fa3c aa5b ccbc 2431 2a3d
000002a0: a749 423d 6c92 3d3c 3ac0 383d c0af 0fbd
000002b0: 8320 073d 66c7 d6bc 82fd c73c cbfe 823d
000002c0: 49c2 253c 867f f93c f88b 433c 4ae4 53bd
000002d0: b9b2 a53c 6aec 193d 6a16 05bc 99e3 c6bb
000002e0: a71c 4abd 21c3 493d ac7b 2ebd c846 8fbc
000002f0: e802 a63c 2907 6fbd 5aba 5a3c 79e6 79bc
00000300: 7298 07bd 2aab 76bb 50af 39bd ecc3 d0bc
00000310: 6664 25ba d294 88bc 303a 28bd 9905 8fbc
00000320: 48cb 39bc 9a3a 69bc 467e 69bd be07 d43c
00000330: a973 5cbc c140 1cbd 41eb 17bd 8490 063d
00000340: 9cc3 853c 7f27 cebc fd37 183d c81d 0ebd
00000350: 3df1 953c 806f 18bd 355d 96bd 6504 743c
00000360: 1065 973a 6d75 6a3c cbb3 fc3b 243f 7cbb
00000370: 4f32 53bc aef7 53bd a006 b9bc ac35 91bc
00000380: a629 fbbc 8fcc cabc 357f 803c 4900 23bc
00000390: 6545 bbbb d952 8e3d c64a 1d3d 7259 03bc
000003a0: e494 cdbd 5aa3 0fbd 5e17 75bc d2df 943c
000003b0: ca14 3e3d 4599 42bd 5f45 0fbd f277 633d
000003c0: a508 9fbb ed04 adbc 8b21 1fbb 54f5 983c
000003d0: 75ce 4bbd 1f95 2a3d b49d b839 e380 cdbc
000003e0: 3dd9 b5ba 0bfa 253c acb2 733d 5489 003d
000003f0: f8c6 bfbb 07d1 78bc d83e bebc 496e 80bc

encoder.2.bias f4 [64]
-0.00314852 0.010576691 0.0001870379 0.0129098175 0.02237782 -0.03748622 0.026416577 0.019969432
0.00381963 -0.03822427 -0.00021733966 0.0006208782 0.08447805 0.010662902 0.02863375 0.058293447
-0.0365657 -0.03288473 -0.077176206 0.038920965 0.01941268 -0.06700112 -0.030605903 -0.017475754
-0.004169376 0.07493342 -0.0018942449 0.03275363 -0.08724234 0.027861388 -0.012599581 0.036926653
0.028672215 -0.076489024 0.0037139058 0.03248538 -0.0023918622 -0.011994922 0.038535096 0.029529963
0.027536923 -0.036190458 -0.028301375 0.030653149 -0.007358669 0.02124785 -0.01992634 -0.00619262
-0.0076246983 0.006963743 0.09032338 -0.031414203 0.0813973 -0.013506786 -0.0674631 -0.09477046
-0.016703276 -0.0012782451 -0.0131223295 0.009053515 -0.036201134 0.03880254 -0.031057036 -0.0077756266
00000000: 6657 4ebb db49 2d3c 9b1f 4439 b383 533c
00000010: b151 b73c 278b 19bd 9467 d83c ef96 a33c
00000020: c252 7a3b 0d91 1cbd ace5 63b9 6ec2 223a
00000030: d402 ad3d 74b3 2e3c 5391 ea3c 1cc5 6e3d
00000040: eac5 15bd 23b2 06bd 8f0e 9ebd 976b 1f3d
00000050: 5707 9f3c e237 89bd 3bb9 fabc 5029 8fbc
00000060: 439f 88bb b176 993d 5048 f8ba ac28 063d
00000070: 1dac b2bd 913d e43c 796e 4ebc 6740 173d
00000080: fee1 ea3c 47a6 9cbd 0065 733b 640f 053d
00000090: cac0 1cbb 5986 44bc fad6 1d3d d2e8 f13c
000000a0: 1d95 e13c 723c 14bd 49d8 e7bc 501c fb3c
000000b0: fd20 f1bb f90f ae3c 903c a3bc 76eb cabb
000000c0: 9bd8 f9bb 1c30 e43b 77fb b83d 2eac 00bd
000000d0: a1b3 a63d 914b 5dbc 182a 8abd 0417 c2bd
000000e0: 4fd5 88bc ca8a a7ba 0aff 56bc 3255 143c
000000f0: a447 14bd 6aef 1e3d 536b febc afca febb

decoder.0.weight f4 [500, 64]
0.05702328 0.12917931 0.14005905 -0.07780466 -0.006265064 -0.09685522 0.08921337 0.0056213383
-0.03316854 -0.016800452 0.011133906 0.11533792 0.055886082 -0.06834519 -0.07491153 0.07913453
-0.13722551 0.0770135 0.0026720213 -0.26982418 -0.06733709 -0.19158274 0.009943275 -0.059513524
0.13429114 0.067859 0.009861894 -0.1085818 0.1328807 0.10765496 0.0080138855 0.12410982
-0.07673379 -0.06996894 0.05990272 0.13141818 0.1030999 0.030208884 -0.053958263 -0.010138719
0.010483538 -0.098646306 -0.09360587 0.055263545 -0.09940685 0.16188797 -0.111672506 0.124702536
0.09697027 0.08342668 0.07551634 -0.10899665 0.061993938 -0.14670587 0.04498707 -0.1586208
-0.08777195 0.07325827 -0.1099394 0.0019733822 0.09955341 0.07322847 0.10893147 -0.085391805
0.049438488 0.095831074 -0.06932877 -0.041529574 -0.032230772 -0.012776745 -0.06914538 -0.07741526
-0.0252496 -0.030036464 0.01720259 0.16802767 -0.06990603 -0.021679815 -0.0060899304 -0.23952085
-0.084068015 0.038197543 -0.16792965 0.118161514 -0.075790666 0.063224144 0.08802245 -0.08172525
0.047125753 -0.09108904 0.11351978 -0.122141846 0.097997904 0.07306993 0.019819133 0.09118926
-0.077325225 -0.09713989 0.07573355 -0.026631016 0.016238684 -0.05997194 0.13003495 -0.13921726
0.04022184 0.13000911 0.09871727 0.114513524 -0.02862279 0.08373421 0.14106756 0.04457805
0.04398528 0.010686007 0.078682356 0.16851045 -0.11627624 0.052118022 -0.071372755 0.08352509
0.13006124 0.020951174 -0.08394467 0.07254501 -0.080698624 0.10109407 -0.0369089 0.09878094
-0.015001161 0.06537517 -0.074296 -0.0549377 -0.084403425 -0.24941519 -0.07412394 -0.15800068
-0.1868886 -0.09989918 0.15716234 0.10748729 0.06988638 -0.06580083 0.098735385 -0.13177381
-0.12536195 0.13989435 0.14424856 0.064070635 -0.0795562 0.2877155 -0.08207023 0.13992669
0.17839302 -0.21132696 0.11418986 0.019594863 -0.16865346 0.18637677 0.06679982 -0.09288582
0.053490046 0.10944981 0.027009796 -0.096815206 -0.040931154 0.035838258 0.13961779 0.020389589
0.042613734 0.101393625 0.05174667 -0.005745701 0.002372745 -0.15071075 -0.13867563 -0.039640732
-0.064790346 -0.15141796 -0.083980344 0.087765835 -0.034499824 -0.0386435 0.09035737 0.14029035
0.03398705 0.04202794 -0.01580464 -0.20936488 0.033308372 0.1707313 0.037758943 -0.083814144
-0.025036698 0.060364213 0.06762097 -0.018816762 0.04964785 0.0008707522 -0.057296332 0.15917748
-0.01437785 0.16723241 0.02771871 -0.26767278 -0.08326534 0.21598832 -0.035836242 -0.15351972
0.020424634 0.0049463892 -0.03903586 -0.21264069 0.116449565 -0.000192882 -0.11437105 -0.09819885
-0.044610362 0.101643264 -0.073481366 -0.15606853 -0.12267021 -0.11814818 -0.014528678 0.31097966
-0.052096244 -0.027120177 -0.040403843 0.16704087 -0.072200485 0.098045915 -0.011456346 -0.087381646
-0.12141019 -0.27370593 -0.12692551 0.13759837 0.14104666 0.19800523 -0.116586626 0.038481522
-0.1186882 0.32528427 0.08189451 -0.22455299 0.021370905 -0.2920499 -0.05012845 -0.16830723
-0.036281742 0.19575484 -0.011347156 0.053138167 -0.059499957 -0.15671693 0.023757456 0.13050213
00000000: 3e91 693d 9547 043e a46b 0f3e 0d58 9fbd
00000010: 2a4b cdbb 085c c6bd 80b5 b63d 3433 b83b
00000020: bcdb 07bd 1aa1 89bc fd6a 363c 4a36 ec3d
00000030: cee8 643d 90f8 8bbd 376b 99bd 4911 a23d
00000040: d884 0cbe 41b9 9d3d 141d 2f3b 6526 8abe
00000050: 07e8 89bd 442e 44be 1ee9 223c 74c4 73bd
00000060: 9e83 093e a9f9 8a3d c893 213c 2260 debd
00000070: e111 083e 347a dc3d ac4c 033c 4a2d fe3d
00000080: 9b26 9dbd e04b 8fbd 8e5c 753d 7d92 063e
00000090: 0a26 d33d 9f78 f73c 5703 5dbd df1c 26bc
000000a0: 25c3 2b3c 1307 cabd 6fb4 bfbd 075c 623d
000000b0: d295 cbbd f6c5 253e 8eb4 e4bd 0b64 ff3d
000000c0: 5998 c63d 9bdb aa3d 50a8 9a3d a339 dfbd
000000d0: 5bed 7d3d 103a 16be 5d44 383d 7e6d 22be
000000e0: c8c1 b3bd 6f08 963d e827 e1bd dc53 013b
000000f0: a9e2 cb3d cff8 953d 7617 df3d e6e1 aebd
00000100: 0380 4a3d 1543 c43d 3efc 8dbd ea1a 2abd
00000110: 6a04 04bd 8d55 51bc 189c 8dbd e48b 9ebd
00000120: 40d8 cebc 080f f6bc 72ec 8c3c 720f 2c3e
00000130: e52a 8fbd de99 b1bc 0a8e c7bb f444 75be
00000140: da2b acbd 0775 1c3d c0f5 2bbe aafe f13d
00000150: 2338 9bbd a97b 813d 1d45 b43d 915f a7bd
00000160: ef06 413d e48c babd 0f7d e83d 8125 fabd
00000170: 20b3 c83d b0a5 953d bc5b a23c 6fc1 ba3d
00000180: b05c 9ebd 47f1 c6bd 311a 9b3d 4a29 dabc
00000190: fd06 853c 23a5 75bd e227 053e f88e 0ebe
000001a0: a8bf 243d 1c21 053e 482c ca3d 1186 ea3d
000001b0: 577a eabc d77c ab3d 0474 103e 7997 363d
000001c0: e929 343d 5d14 2f3c 3724 a13d 018e 2c3e
000001d0: 3d22 eebd b579 553d e12b 92bd 340f ab3d
000001e0: c62e 053e cca1 ab3c 2feb abbd 7a92 943d
000001f0: 5245 a5bd 680a cf3d c92d 17bd a94d ca3d
00000200: 6ec7 75bc 6be3 853d 8028 98bd 5b06 61bd
00000210: b4db acbd b266 7fbe 4bce 97bd eeca 21be
00000220: ba5f 3fbe f197 ccbd 2aef 203e 4c22 dc3d
00000230: 9720 8f3d 96c2 86bd c735 ca3d b7ef 06be
00000240: e25e 00be 7740 0f3e e5b5 133e 7737 833d
00000250: 5cee a2bd 724f 933e 7014 a8bd f148 0f3e
00000260: a9ac 363e 1866 58be 60dc e93d 6885 a03c
00000270: 7eb3 2cbe 8dd9 3e3e 58ce 883d ec3a bebd
00000280: 6118 5b3d 3927 e03d a643 dd3c 0d47 c6bd
00000290: 6da7 27bd 23cb 123d f7f7 0e3e 1108 a73c
000002a0: bd8b 2e3d 76a7 cf3d 51f4 533d 6f46 bcbb
000002b0: 0e80 1b3b eb53 1abe fc00 0ebe 525e 22bd
000002c0: cdb0 84bd 4f0d 1bbe e3fd abbd 93be b33d
000002d0: b04f 0dbd a648 1ebd 490d b93d 46a8 0f3e
000002e0: 0136 0b3d 7d25 2c3d bb78 81bc bf63 56be
000002f0: 5c6e 083d 30d4 2e3e 1fa9 1a3d c0a6 abbd
00000300: c319 cdbc 7740 773d dd7c 8a3d 9c25 9abc
00000310: 8b5b 4b3d 3143 643a 8faf 6abd 6cff 223e
00000320: 1391 6bbc f93e 2b3e 5912 e33c 680c 89be
00000330: 0587 aabd 0b2c 5d3e 06c9 12bd 4634 1dbe
00000340: 9051 a73c 5215 a23b 11e4 1fbd 7bbe 59be
00000350: 1c7d ee3d 5e40 4ab9 5e3b eabd 7b1c c9bd
00000360: 5bb9 36bd 582a d03d 667d 96bd 6ed0 1fbe
00000370: 853a fbbd acf7 f1bd b109 6ebc ba38 9f3e
00000380: df62 55bd 222b debc 807e 25bd c30c 2b3e
00000390: d9dd 93bd 4ccc c83d 66b3 3bbc 26f5 b2bd
000003a0: e8a5 f8bd 2f23 8cbe c3f8 01be 96e6 0c3e
000003b0: 896e 103e e2c1 4a3e f8c4 eebd cd9e 1d3d
000003c0: cd12 f3bd a98b a63e 4fb8 a73d 38f1 65be
000003d0: 0912 af3c 9187 95be 7d53 4dbd bb58 2cbe
000003e0: 2a9c 14bd f573 483e 6ce9 39bc 68a7 593d
000003f0: 3ab6 73bd 677a 20be ff9e c23c 5aa2 053e

decoder.0.bias f4 [500]
0.03260745 -0.031412747 0.023316195 0.063533336 -0.031415705 0.075751126 -0.061328124 -0.032596815
0.0870057 -0.024613222 0.027220402 -0.1351054 -0.0054974533 0.10458776 -0.119525336 0.0877126
-0.051255673 0.027841566 -0.035433486 -0.051277313 0.018392798 -0.07042945 0.093655735 0.104826495
-0.038866173 -0.037685134 0.033900954 -0.081933185 -0.051776208 -0.0029105486 0.14814328 -0.0147289345
0.15263435 -0.038003772 -0.03738024 -0.030818963 -0.1209078 0.050244197 -0.04970784 0.026736094
0.019026613 -0.0060615386 -0.087895416 0.08812062 -0.04253958 -0.016551107 0.05256029 -0.13367547
-0.09915002 0.04532407 -0.051519394 0.06271049 -0.12524803 -0.027958278 0.01706501 -0.0167225
0.044042077 -0.12800182 0.10744335 -0.12210788 -0.07942787 -0.107115544 -0.1164409 0.10902824
0.21477665 -0.054857522 0.06528729 -0.082117796 0.112607464 -0.0040906155 -0.021941273 0.11487118
-0.12333495 -0.029813241 0.0896611 -0.033742696 -0.050296985 0.020920949 -0.019600965 0.043453533
-0.092660844 -0.0534924 -0.13084538 -0.032778315 -0.08452977 0.0363306 -0.14171726 0.018661212
0.042812254 -0.13154428 0.004136237 0.0240792 -0.0728799 -0.0012080806 0.0556938 0.03586959
-0.0002766818 0.034069393 -0.08421189 -0.09699427 0.04071703 -0.098780096 -0.11678967 -0.013942932
-0.030496025 0.086145565 -0.0016864752 -0.04371423 -0.10697679 -0.05428347 0.059441287 0.03653678
0.021910217 0.035990894 -0.076369055 -0.047459915 -0.047540158 -0.058239184 -0.02248665 -0.008021803
-0.03242432 -0.019790886 0.1057478 0.08354033 -0.0907232 0.11692649 0.010270399 0.09626486
-0.023481224 0.14707525 0.12151516 0.0777188 -0.024079002 -0.11755054 0.068395406 0.059941918
0.09347524 -0.02727516 0.07190077 -0.07368013 -0.14896916 0.07271354 -0.129866 0.09385009
-0.011983461 0.14366366 0.008648136 -0.06589226 -0.12439003 -0.11049771 -0.103299245 -0.060039002
0.0061020907 0.11203051 0.09339901 -0.021464981 -0.11979302 0.04191401 0.05055009 0.02796931
0.00012691242 0.01804595 -0.096407995 -0.07674472 -0.01082445 0.021439083 0.019297175 -0.016437309
0.00835691 -0.0008638058 -0.044505306 0.055974394 -0.05138906 -0.05949763 -0.071963 0.032843288
-0.045021553 -0.11083752 -0.046115566 -0.037490524 -0.05561857 -0.048823036 0.14596286 -0.18676065
0.08502056 -0.027630502 -0.02065229 0.011589856 0.08788871 -0.09149262 -0.009058891 0.09963279
0.04257154 -0.13290805 0.13838477 -0.13824473 -0.013806836 -0.026993062 0.0042538955 -0.12693943
0.012186928 0.06321854 0.010920383 0.10571659 0.08280873 0.03815461 0.106136024 0.15405127
-0.09893325 -0.14659801 0.10927018 -0.045303542 -0.11099173 0.107446 0.12174049 -0.055905152
-0.06926306 -0.071999 -0.06846328 -0.09067644 -0.056932535 0.04604347 -0.071920455 0.04153057
0.03854545 0.110158086 0.13407685 -0.025458006 0.11976904 0.046003826 0.080566265 -0.12549129
-0.12041809 -0.048241243 0.077749744 0.11451018 -0.015685283 0.042934686 0.08668519 -0.045197513
0.104210325 -0.063670225 0.1298137 0.06592067 -0.11823322 0.10398711 -0.0316026 -0.05937298
0.09082798 0.08031831 -0.019895062 -0.115749985 0.05945189 -0.051489707 -0.14047371 -0.11408583
00000000: 648f 053d a7aa 00bd 9b01 bf3c c41d 823d
00000010: c1ad 00bd 6823 9b3d 3333 7bbd 3d84 05bd
00000020: 0b30 b23d aba1 c9bc 52fd de3c 1259 0abe
00000030: fb23 b4bb 1c32 d63d b3c9 f4bd aaa2 b33d
00000040: 78f1 51bd ff13 e43c b422 11bd 2908 52bd
00000050: 7eac 963c 513d 90bd 94ce bf3d 46af d63d
00000060: 2332 1fbd ba5b 1abd badb 0a3d 96cc a7bd
00000070: 4a13 54bd e7be 3ebb dfb2 173e a151 71bc
00000080: 2e4c 1c3e d8a9 1bbd 061c 19bd 0d78 fcbc
00000090: 829e f7bd dccc 4d3d 739a 4bbd a705 db3c
000000a0: b3dd 9b3c df9f c6bb 8302 b4bd 9578 b43d
000000b0: fc3d 2ebd 3096 87bc 7549 573d 39e2 08be
000000c0: 2a0f cbbd bba5 393d 0006 53bd 5b6e 803d
000000d0: 0541 00be c208 e5bc ebcb 8b3c a0fd 88bc
000000e0: 7765 343d e912 03be 420b dc3d b213 fabd
000000f0: 14ab a2bd 655f dbbd 9178 eebd 334a df3d
00000100: 69ee 5b3e 48b2 60bd 58b5 853d 602d a8bd
00000110: be9e e63d 920a 86bb 2fbe b3bc 9541 eb3d
00000120: 0997 fcbd e63a f4bc 3da0 b73d c835 0abd
00000130: 3604 4ebd 6962 ab3c 3492 a0bc 55fc 313d
00000140: f8c4 bdbd d91a 5bbd 55fc 05be 8e42 06bd
00000150: f21d adbd 65cf 143d 541e 11be 66df 983c
00000160: e75b 2f3d 8bb3 06be 4589 873b be41 c53c
00000170: 0f42 95bd 7558 9eba 2f1f 643d feeb 123d
00000180: 9a0f 91b9 598c 0b3d 4977 acbd efa4 c6bd
00000190: e7c6 263d 384d cabd 6c2f efbd e570 64bc
000001a0: cdd2 f9bc 166d b03d b80c ddba b10d 33bd
000001b0: a616 dbbd 5858 5ebd b578 733d 97a7 153d
000001c0: 0e7d b33c 306b 133d 6167 9cbd 5465 42bd
000001d0: 78b9 42bd 368c 6ebd ec35 b8bc e16d 03bc
000001e0: 5dcf 04bd 7f20 a2bc 4d92 d83d 3117 ab3d
000001f0: 16cd b9bd 2877 ef3d 2d45 283c 8326 c53d
00000200: b25b c0bc e59a 163e f1dc f83d 092b 9f3d
00000210: 5441 c5bc 56be f0bd e412 8c3d a885 753d
00000220: f26f bf3d 2870 dfbc b640 933d 9ce5 96bd
00000230: 5f8b 18be d6ea 943d 98fb 04be 7a34 c03d
00000240: 4756 44bc 911c 133e e9b0 0d3c 85f2 86bd
00000250: 33c0 febd a04c e2bd 8e8e d3bd 75eb 75bd
00000260: 0cf4 c73b 4170 e53d fb47 bf3d 54d7 afbc
00000270: 0b56 f5bd 06ae 2b3d 9c0d 4f3d e51f e53c
00000280: cb13 0539 1ad5 933c 8e71 c5bd 562c 9dbd
00000290: 0959 31bc 04a1 af3c 1c15 9e3c 89a7 86bc
000002a0: 6ceb 083c 0771 62ba 324b 36bd 6845 653d
000002b0: 567d 52bd c9b3 73bd 5661 93bd af86 063d
000002c0: 8568 38bd c8fe e2bd ade3 3cbd aa8f 19bd
000002d0: 4cd0 63bd aafa 47bd 4a77 153e 2f3e 3fbe
000002e0: 421f ae3d 5d59 e2bc fe2e a9bc 61e3 3d3c
000002f0: fffe b33d 7c60 bbbd be6b 14bc 470c cc3d
00000300: 7f5f 2e3d 0c19 08be bdb4 0d3e 0790 0dbe
00000310: 1136 62bc 8e20 ddbc 4364 8b3b 69fc 01be
00000320: aeab 473c b978 813d 68eb 323c f181 d83d
00000330: a097 a93d 0248 1c3d d85d d93d 9ebf 1d3e
00000340: 849d cabd ca1d 16be 0bc9 df3d 3590 39bd
00000350: a24f e3bd a60c dc3d 1453 f93d cdfc 64bd
00000360: cbd9 8dbd 3674 93bd 7a36 8cbd 92b4 b9bd
00000370: 1732 69bd 1498 3c3d 084b 93bd f51b 2a3d
00000380: d5e1 1d3d 909a e13d 714b 093e 4f8d d0bc
00000390: 7849 f53d 826e 3c3d edff a43d ca80 00be
000003a0: c29d f6bd 9c98 45bd 423b 9f3d 5084 ea3d
000003b0: 6c7e 80bc 48dc 2f3d 0188 b13d 0721 39bd
000003c0: 396c d53d 8965 82bd e2ed 043e 6b01 873d
000003d0: 4224 f2bd 32f7 d43d ba71 01bd 1531 73bd
000003e0: 0504 ba3d ed7d a43d f8fa a2bc 540e edbd
000003f0: d383 733d dfe6 52bd 57d8 0fbe d5a5 e9bd

decoder.2.weight f4 [3, 500]
-0.002131525 0.009735177 0.012743002 -0.0354228 -0.013924318 0.023498602 0.038371686 0.00594459
0.008377426 0.011268906 0.032061152 -0.043434583 0.033907942 0.019375935 0.00012726843 0.0008156537
-0.017941684 0.06157331 0.06837071 -0.033641286 0.031419367 0.013122083 0.0030679351 -0.021256441
0.0045803995 -0.04933613 0.033876993 -0.03795318 0.010595466 -0.050822202 -0.009592674 -0.07261091
-0.064935274 -0.0070574735 0.070146866 -0.100417055 0.010801508 0.07166454 -0.009889218 0.020423751
0.059507817 -0.018575318 -0.027409552 0.0013916185 -0.010148196 -0.039961345 0.112156816 -0.032330733
-0.061086416 0.020179683 -0.025640735 0.009936948 0.023102729 -0.06491099 -0.006356266 -0.08202468
-0.009812511 -0.036150392 0.00052642607 0.02107231 0.03210625 -0.01586458 -0.021662321 0.0012327353
-0.08923231 0.06637461 0.018543977 0.007927408 -0.0012827927 0.021065569 0.011400769 0.041188378
-0.019435948 -0.060009684 0.056599014 -0.022889499 0.018315988 0.044218305 -0.018754369 0.0071469536
0.08202003 -0.030422622 0.006175666 -0.035559587 -0.06728519 -0.052638788 -0.02845516 -0.029931685
0.0019980087 -0.014295164 -0.005644054 0.050586566 -0.009742482 0.0070482814 -0.024790594 -0.014504494
-0.021098703 -0.0143646365 -0.02937737 0.046239298 0.059237324 0.040064715 0.001231435 0.03977807
0.007085125 -0.004813367 0.090390645 0.04831562 -0.03215959 0.034687806 0.041187644 0.0022330983
0.00031158314 0.025491146 -0.016646037 -0.02895059 0.041178793 -0.023191445 -0.015643159 0.05184538
-0.0125741 0.009035908 0.06873374 0.020124426 0.07223927 0.024911147 0.014452034 -0.075267114
0.0040151277 -0.014461074 -0.0608502 0.01978762 0.010825942 -0.08018923 0.021539321 -0.044336084
-0.0341704 -0.07060881 -0.007689482 0.073573 0.023104621 -0.039999906 0.031002425 -0.030997323
0.029156374 0.04553667 -0.03274019 0.018070715 0.027194656 0.028944563 -0.06140971 0.01617444
-0.03293981 -0.049467903 -0.006300686 0.020821037 -0.033420943 -0.07996691 0.023420118 -0.031072762
0.05206169 0.0623625 0.028951446 -0.054321144 -0.035712406 -0.008012181 -0.005771957 -0.015237383
0.0722696 0.04303802 0.026169686 -0.014042288 -0.07080576 -0.016914293 0.018559225 0.046455856
-0.031751122 0.071872115 0.02889099 0.00938225 -0.07211187 0.058130387 0.028306806 0.07510244
-0.011079783 0.024185263 -0.024894772 0.0024118507 0.042915847 0.04673972 0.004280238 -0.026773876
-0.04119158 -0.065306194 -0.03335314 -0.021387566 0.046931185 -0.034298964 -0.04165308 0.034624815
-0.023056893 0.0062822984 -0.014793154 -0.019260088 -0.0066735917 -0.06744212 -0.009420193 -0.007787369
0.02893696 0.049017936 0.032852083 -0.020559572 -0.018668173 -0.030112466 -0.06281628 0.03794463
-0.015414555 0.059163842 0.01829347 -0.01317015 -0.035112962 -0.0069102645 -0.034528602 -0.031153835
-0.016596656 -0.047875587 -0.080376096 -0.018027717 -0.006513784 0.026179083 0.0755464 -0.02003312
0.068608455 0.0121151935 -0.030530468 -0.051675055 0.06085219 -0.009318637 -0.00039743452 -0.038180534
-0.013712049 0.011069404 -0.045030944 -0.043324742 -0.021110905 0.016766166 -0.012291924 -0.002330698
0.016342226 -0.046362635 -0.04303503 -0.04852863 -0.037866782 -0.02245008 -0.051250894 -0.085553475
00000000: 0eb1 0bbb 4b80 1f3c 06c8 503c 7f17 11bd
00000010: d322 64bc 2480 c03c a12b 1d3d d6ca c23b
00000020: 7941 093c 38a1 383c 8e52 033d 76e8 31bd
00000030: 0ee3 0a3d 48ba 9e3c 5c73 0539 98d1 553a
00000040: 70fa 92bc 4c34 7c3d f105 8c3d 72cb 09bd
00000050: 98b1 003d 01fe 563c 690f 493b fd21 aebc
00000060: 2d17 963b af14 4abd 9ac2 0a3d cb74 1bbd
00000070: 9b98 2d3c f12a 50bd 972a 1dbc 07b5 94bd
00000080: c9fc 84bd 6142 e7bb 29a9 8f3d 75a7 cdbd
00000090: cff8 303c dcc4 923d 6306 22bc b64f a73c
000000a0: 78be 733d 442b 98bc ff89 e0bc f866 b63a
000000b0: 9e44 26bc 82ae 23bd 79b2 e53d 3b6d 04bd
000000c0: c035 7abd dd4f a53c 850c d2bc 95ce 223c
000000d0: ef41 bd3c 0ef0 84bd 3948 d0bb 8efc a7bd
000000e0: a7c4 20bc 6f12 14bd dbff 093a d69f ac3c
000000f0: d881 033d 70f6 81bc 2e75 b1bc bc93 a13a
00000100: 6ebf b6bd 69ef 873d 8ae9 973c f6e1 013c
00000110: 6123 a8ba b391 ac3c 4bca 3a3c 25b5 283d
00000120: 2338 9fbc b7cc 75bd 5ed4 673d c282 bbbc
00000130: 690b 963c 411e 353d c3a2 99bc fe30 ea3b
00000140: 1efa a73d dd38 f9bc 3e5d ca3b eea6 11bd
00000150: d1cc 89bd c59b 57bd cc1a e9bc 4b33 f5bc
00000160: 06f1 023b 4336 6abc c2f1 b8bb dc33 4f3d
00000170: ee9e 1fbc 45f5 e63b a515 cbbc 42a4 6dbc
00000180: 30d7 acbc a759 6bbc cfa8 f0bc 6b65 3d3d
00000190: d6a2 723d e61a 243d 1a68 a13a 54ee 223d
000001a0: 562a e83b 73b9 9dbb bb1e b93d 99e6 453d
000001b0: c6b9 03bd cd14 0e3d 60b4 283d 2c59 123b
000001c0: fb5b a339 cfd2 d03c 455d 88bc ca29 edbc
000001d0: 18ab 283d fcfb bdbc 1526 80bc d25b 543d
000001e0: 9903 4ebc 580b 143c 46c4 8c3d fbdb a43c
000001f0: 2ff2 933d 7612 cc3c 39c8 6c3c a525 9abd
00000200: 5591 833b 24ee 6cbc 0f3e 79bd a619 a23c
00000210: 4b5f 313c 403a a4bd 3b73 b03c c199 35bd
00000220: 43f6 0bbd 5a9b 90bd 0df8 fbbb 71ad 963d
00000230: e745 bd3c f1d6 23bd ccf8 fd3c 19ee fdbc
00000240: 59d9 ee3c a984 3a3d 941a 06bd 0909 943c
00000250: 54c7 de3c 261d ed3c c088 7bbd 4280 843c
00000260: e5eb 06bd db9e 4abd fc75 cebb e190 aa3c
00000270: 66e4 08bd b1c5 a3bd 8cdb bf3c 4e8c febc
00000280: a33e 553d d26f 7f3d 952b ed3c d97f 5ebd
00000290: 2c47 12bd 8645 03bc af22 bdbb 37a6 79bc
000002a0: 1602 943d a348 303d cf61 d63c a011 66bc
000002b0: 9c02 91bd d88f 8abc 8409 983c 7f48 3e3d
000002c0: 770d 02bd b031 933d ccac ec3c 02b8 193c
000002d0: 63af 93bd 211a 6e3d ade3 e73c 4fcf 993d
000002e0: fa87 35bc 2c20 c63c 1ff0 cbbc 2410 1e3b
000002f0: 87c8 2f3d 2672 3f3d 3d41 8c3b e354 dbbc
00000300: 81b8 28bd 41bf 85bd 4d9d 08bd fa34 afbc
00000310: ea3a 403d 127d 0cbd 6c9c 2abd c0d2 0d3d
00000320: cfe1 bcbc bddb cd3b fc5e 72bc 55c7 9dbc
00000330: 25ae dabb 181f 8abd 2757 1abc 302d ffbb
00000340: 340d ed3c 08c7 483d e88f 063d 8c6c a8bc
00000350: ffed 98bc 6bae f6bc d2a5 80bd d46b 1b3d
00000360: 548d 7cbc c955 723d 30dc 953c 9dc7 57bc
00000370: 9cd2 0fbd 806f e2bb dd6d 0dbd 5436 ffbc
00000380: b6f5 87bc 3119 44bd 399c a4bd ddae 93bc
00000390: 9571 d5bb 8475 d63c 12b8 9a3d 7f1c a4bc
000003a0: 9782 8c3d ce7e 463c 081b fabc 39a9 53bd
000003b0: 2540 793d 32ad 18bc c25e d0b9 3163 1cbd
000003c0: 81a8 60bc 725c 353c 5e72 38bd 4975 31bd
000003d0: c7f0 acbc 3359 893c 1164 49bc a0be 18bb
000003e0: 22e0 853c bfe6 3dbd 8045 30bd f5c5 46bd
000003f0: 331a 1bbd 3be9 b7bc 75ec 51bd a936 afbd

decoder.2.bias f4 [3]
-0.033984322 0.045461513 0.03830065
00000000: 2533 0bbd da35 3a3d 24e1 1c3d

koopman.parameterization.0.weight f4 [64, 64]
0.12073265 -0.0012238933 -0.03662868 0.009215494 -0.040722568 0.16586947 -0.05145266 0.101759695
0.12855779 -0.029850768 -0.06460619 -0.034584664 -0.044061597 0.019550776 -0.016278014 -0.11317783
0.09430882 0.021326367 0.13973531 -0.4031774 0.028859297 0.06250173 0.15067247 -0.07891859
-0.14322911 -0.11149472 0.08951547 -0.053517405 0.34623215 -0.1235808 -0.083284646 0.37052596
-0.11437599 0.07977313 0.32680112 0.1023732 0.028975507 0.16488314 0.05948588 -0.08277256
-0.02263194 -0.08051732 -0.034008775 0.066822335 0.021047873 0.12346882 0.24803981 0.018064331
0.08500904 0.29863602 -0.20128316 -0.022302428 -0.043647263 0.012855733 0.09534346 -0.121238045
-0.0967067 -0.049770463 0.111168735 0.112183176 -0.061158556 -0.13476177 -0.055128597 0.14369051
0.19410113 -0.06457224 -0.2650864 -0.16856907 -0.0401108 -0.09715208 0.23906392 0.06251772
-0.121494666 -0.037559655 -0.17172524 -0.11864567 -0.04634449 -0.104680166 0.027679414 0.030055083
0.06735104 0.04051706 -0.13062036 0.08401623 0.027030142 -0.025670515 0.05722849 -0.0035704758
0.19026 -0.070686154 -0.0029694298 0.028075868 0.17287433 0.008538997 -0.08528645 -0.11570194
-0.062053714 0.0566968 0.10433281 -0.07545332 -0.21345618 0.0014164145 0.16844869 0.0612532
-0.044228457 0.06945112 0.63471526 0.0277569 0.08608462 -0.13944687 0.08342169 -0.12361866
0.0409634 -0.010988148 0.28891897 -0.030738167 0.19598025 -0.12941046 0.052114412 -0.06670613
-0.058519576 0.0044771982 -0.33777615 -0.028751131 -0.1173066 0.06412059 0.22599103 -0.0059113335
-0.04261316 0.03052677 0.018382778 0.055090982 0.15764223 0.005479504 -0.064438336 0.070731215
-0.11925749 0.053563926 -0.052436884 0.12506454 -0.10837701 0.10203063 -0.05796261 -0.02394892
0.0022522346 0.0706506 0.027392458 -0.19204853 0.11879525 -0.022467364 -0.08874968 0.15166329
-0.07037005 -0.10724619 0.013901364 -0.094712615 0.0408431 -0.3637223 -0.026691927 0.17007631
0.14592619 0.047603734 0.19364947 -0.082884714 0.071060196 0.03928369 0.004701783 0.14914228
-0.06987296 0.17001002 0.08629011 0.10856475 -0.01816041 0.056332957 0.07318262 -0.24264562
0.048628915 0.08347749 -0.087723866 0.32075423 0.03489483 -0.22534171 0.0616307 0.15524112
0.044781722 -0.121872365 -0.102016084 -0.25200298 -0.10383514 0.073954545 -0.008780835 0.20183434
-0.1649795 -0.059746247 0.3054347 -0.19478458 0.12779745 -0.010866283 -0.086853944 0.005816602
-0.12385376 0.03805848 0.108969636 -0.04610085 0.13093624 -0.32536176 -0.14048147 -0.22050597
-0.051095065 -0.15630941 0.026334496 -0.09596341 0.09921757 -0.20783624 0.009479821 -0.108039714
0.0040512295 0.109847695 -0.11330643 0.112784296 -0.16775092 -0.13951725 -0.09024933 0.123085275
-0.0026122204 -0.110565655 0.12065029 0.06326634 0.030124819 0.046186868 0.06634218 0.037519246
-0.08604885 -0.2531296 -0.19902591 -0.11265594 0.09598619 -0.12825312 -0.1039911 0.142129
-0.020037225 0.095674984 0.28745544 0.039345346 -0.06283433 0.012684375 -0.0708744 -0.06390176
-0.14935924 0.028583867 0.11809186 0.18465981 -0.020344177 0.039632626 -0.07898248 -0.079064704
00000000: ae42 f73d 0b6b a0ba f407 16bd 95fc 163c
00000010: b5cc 26bd b0d9 293e 06c0 52bd 6367 d03d
00000020: a7a4 033e 9989 f4bc 4050 84bd a6a8 0dbd
00000030: ef79 34bd f328 a03c 7859 85bc c7c9 e7bd
00000040: fc24 c13d a2b4 ae3c c616 0f3e 456d cebe
00000050: 556a ec3c e800 803d e249 1a3e 12a0 a1bd
00000060: a7aa 12be 5857 e4bd e353 b73d 1135 5bbd
00000070: 5745 b13e ee17 fdbd 2491 aabd 94b5 bd3e
00000080: f63d eabd 1860 a33d 7a52 a73e 0aa9 d13d
00000090: 0b5e ed3c 20d7 283e 77a7 733d a984 a9bd
000000a0: 9e66 b9bc 44e6 a4bd c94c 0bbd 26da 883d
000000b0: 976c ac3c 38dd fc3d 26fe 7d3e a6fb 933c
000000c0: 3819 ae3d d2e6 983e 2c1d 4ebe 95b3 b6bc
000000d0: 79c7 32bd daa0 523c 6f43 c33d a74b f8bd
000000e0: 2a0e c6bd 1ddc 4bbd 6fac e33d 4bc0 e53d
000000f0: 6581 7abd fdfe 09be 86ce 61bd 9b23 133e
00000100: 72c2 463e 733e 84bd 68b9 87be 5f9d 2cbe
00000110: 394b 24bd abf7 c6bd 2ccd 743e 4a09 803d
00000120: 32d2 f8bd 27d8 19bd bed8 2fbe 80fc f2bd
00000130: b8d3 3dbd 8e62 d6bd f0bf e23c 1436 f63c
00000140: 58ef 893d 37f5 253d 58c1 05be b410 ac3d
00000150: 516e dd3c f94a d2bc 6c68 6a3d a5fe 69bb
00000160: 84d3 423e e7c3 90bd c49a 42bb 5dff e53c
00000170: f805 313e 26e7 0b3c aaaa aebd 24f5 ecbd
00000180: 092c 7ebd e73a 683d 71ac d53d 4587 9abd
00000190: 4294 5abe fca6 b93a d07d 2c3e a3e4 7a3d
000001a0: e628 35bd 643c 8e3d b37c 223f 7062 e33c
000001b0: 224d b03d 29cb 0ebe fed8 aa3d c82b fdbd
000001c0: 3dc9 273d a207 34bc 30ed 933e 9cce fbbc
000001d0: 0caf 483e 2d84 04be ec75 553d 399d 88bd
000001e0: 39b2 6fbd 76b5 923b fff0 acbe 7e87 ebbc
000001f0: 713e f0bd a851 833d 316a 673e dcb3 c1bb
00000200: 238b 2ebd 4713 fa3c 7b97 963c 15a7 613d
00000210: f76c 213e 698d b33b 3ff8 83bd 87db 903d
00000220: 453d f4bd d965 5b3d 0fc8 56bd eb10 003e
00000230: c4f4 ddbd 6ff5 d03d 346a 6dbd 8730 c4bc
00000240: 3a9a 133b 43b1 903d 2666 e03c 5fa8 44be
00000250: ed4a f33d 7a0d b8bc 64c2 b5bd 9f4d 1b3e
00000260: 2c1e 90bd e4a3 dbbd 8cc2 633c b0f8 c1bd
00000270: 184b 273d cf39 babe 07a9 dabc 7c28 2e3e
00000280: ad6d 153e 22fc 423d 0c4c 463e 76bf a9bd
00000290: 0288 913d efe7 203d 6a11 9a3b c1b8 183e
000002a0: 8e19 8fbd 1b17 2e3e dfb8 b03d 3257 de3d
000002b0: 24c5 94bc 63bd 663d c5e0 953d 1878 78be
000002c0: 1d2f 473d 3ff6 aa3d 92a8 b3bd e639 a43e
000002d0: e2ed 0e3d fabf 66be 7970 7c3d 87f7 1e3e
000002e0: 0a6d 373d 3898 f9bd cfed d0bd 8906 81be
000002f0: 85a7 d4bd 7b75 973d 7edd 0fbc a9ad 4e3e
00000300: 63f0 28be 7bb8 74bd f061 9c3e 9c75 47be
00000310: 56dd 023e 7f08 32bc 7be0 b1bd 3299 be3b
00000320: 0aa7 fdbd 35e3 1b3d 792b df3d 3fd4 3cbd
00000330: 2614 063e d195 a6be 60da 0fbe 51cc 61be
00000340: 0f49 51bd 930f 20be 71bb d73c 7788 c4bd
00000350: 9532 cb3d 06d3 54be 4051 1b3c ed43 ddbd
00000360: 2dc0 843b d4f7 e03d 340d e8bd 74fb e63d
00000370: e6c6 2bbe 9cdd 0ebe a4d4 b8bd 2214 fc3d
00000380: c931 2bbb 3f70 e2bd 8017 f73d c891 813d
00000390: 53c8 f63c 712e 3d3d 69de 873d c8ad 193d
000003a0: 613a b0bd 349a 81be 73cd 4bbe 28b8 e6bd
000003b0: 6894 c43d c954 03be 49f9 d4bd 448a 113e
000003c0: 1b25 a4bc 3ff1 c33d 5c2d 933e 9628 213d
000003d0: 49af 80bd 20d2 4f3c 9926 91bd edde 82bd
000003e0: a1f1 18be b728 ea3c 25da f13d 7617 3d3e
000003f0: d5a8 a6bc d255 223d 91c1 a1bd adec a1bd

koopman.parameterization.0.bias f4 [64]
-0.08754486 0.022825604 -0.029387854 0.1728586 0.11213801 -0.033435 0.0805075 0.039894607
-0.09383548 -0.0007293117 0.122344896 0.05665978 0.004049629 -0.05163598 -0.06386625 0.018177576
-0.0556975 0.062152866 -0.013036176 -0.056525044 0.15144978 -0.058967546 -0.05091589 -0.11922667
-0.004024462 0.08916856 0.13346913 0.13981444 -0.114490636 -0.11051078 0.012873133 0.030725861
0.029121466 0.05959536 0.04541553 0.085471794 -0.12521562 0.10952429 0.06375472 -0.090968974
-0.048327684 -0.020509722 0.0014106994 -0.18794702 0.09394822 0.0781801 0.0680925 -0.08657038
-0.09290032 0.081476286 -0.068551384 -0.04177068 -0.04745377 -0.09959322 0.058720313 -0.03244814
0.09308716 -0.06670969 0.101026036 -0.0035240147 0.0079156505 -0.08631476 0.12708192 -0.010618555
00000000: b84a b3bd c3fc ba3c ccbe f0bc d801 313e
00000010: 9da8 e53d 23f3 08bd 1ee1 a43d 8768 233d
00000020: d12c c0bd 482f 3fba f68f fa3d 1614 683d
00000030: c0b2 843b 4080 53bd 4fcc 82bd 24e9 943c
00000040: 1023 64bd 0194 7e3d af95 55bc ce86 67bd
00000050: a715 1b3e f487 71bd 2e8d 50bd 1d2d f4bd
00000060: a2df 83bb 029e b63d 22ac 083e 842b 0f3e
00000070: 117a eabd 7a53 e2bd d5e9 523c cdb4 fb3c
00000080: 2490 ee3c 441a 743d a305 3a3d d60b af3d
00000090: 8638 00be 454e e03d d691 823d f14d babd
000000a0: 40f3 45bd 0104 a8bc 38e7 b83a 2f75 40be
000000b0: ed67 c03d e31c a03d 1574 8b3d d04b b1bd
000000c0: 8642 bebd 0add a63d ab64 8cbd bc17 2bbd
000000d0: e25e 42bd 88f7 cbbd b684 703d 57e8 04bd
000000e0: 7ba4 be3d 179f 88bd bde6 ce3d 28f3 66bb
000000f0: a5b0 013c cbc5 b0bd c321 023e 73f9 2dbc
